models/segmenter_model.tflite (tflite, 242740 bytes, 11 tensors)

arith.constant f4 [16]
0	0x3cc5063f	0.02405083
1	0x39ed0bcc	0.00045212952
2	0xbb21795e	-0.002463899
3	0x3ce5ac43	0.028036242
4	0x3b2bd6b3	0.00262205
5	0xbc024dc1	-0.007953108
6	0x3cbc171a	0.022960234
7	0x3cac7c77	0.021055443
8	0xbc0a70f5	-0.008449783
9	0xbc140594	-0.009034533
10	0xbc12c115	-0.008957167
11	0x3cb16b57	0.021657629
12	0xbc9a609d	-0.018844897
13	0x3cb6e303	0.022325044
14	0x3cb40c4f	0.021978525
15	0xbc2408cf	-0.010011866

arith.constant1 f4 [32]
0	0x3cd1fb8c	0.025632642
1	0x3cc6f1e6	0.024285268
2	0x3c254ce2	0.010089131
3	0x3c3e866f	0.011628731
4	0x3dae796a	0.08519252
5	0x3cd120b0	0.025528282
6	0x3cb0eb8c	0.021596693
7	0x3cce5c36	0.025190454
8	0xbbecdf7b	-0.0072287894
9	0xbc03ac27	-0.00803665
10	0xbc00f3de	-0.0078706425
11	0xbc0ad372	-0.008473264
12	0xbc002c70	-0.007823095
13	0x3ce33dc7	0.027739419
14	0x3ccae4da	0.024767328
15	0x3ccff48c	0.025385164
16	0x3cd268be	0.02568471
17	0xbbcf81f5	-0.0063326308
18	0xbc3d3e39	-0.01155048
19	0x3cb70ef9	0.022346007
20	0xbc0580e4	-0.008148406
21	0x3cdd3298	0.027001664
22	0x3cc9a2f1	0.02461383
23	0xbae66ba9	-0.0017579693
24	0x3cb842ab	0.022492727
25	0xbb0c877b	-0.0021443057
26	0x3ce926a0	0.0284608
27	0x3cb9ecd4	0.022695936
28	0xbc46f74f	-0.012143924
29	0x3ba2399d	0.0049507157
30	0x3c7e8f59	0.015537106
31	0xbb7d7419	-0.0038673936

arith.constant2 f4 [64]
0	0x3d0a7f10	0.033812582
1	0x3ce2f6e6	0.027705621
2	0x3c802526	0.015642714
3	0xbc55bc75	-0.01304542
4	0x3ceaf811	0.02868274
5	0x3ce66bea	0.02812763
6	0x3ce02d2d	0.027365291
7	0xbb5c4dab	-0.003361563
8	0xbc571b5c	-0.013129082
9	0x3d153996	0.03643187
10	0x3cc28795	0.023746291
11	0x3cb91a37	0.022595508
12	0x3cb2bdf9	0.021819102
13	0x3cb85211	0.02250007
14	0x3ca84cf8	0.020544514
15	0xbbdfecef	-0.0068336646
16	0x3c9fd948	0.019512787
17	0x3cd1c565	0.02560682
18	0x3cf0bc9d	0.029386813
19	0x3cc9dc52	0.02464119
20	0x3b66632b	0.0035154324
21	0x3cf7453c	0.03018438
22	0x3cb30740	0.021854043
23	0x3d8775e6	0.06614284
24	0x3ce88897	0.028385444
25	0xbbc6e055	-0.006069223
26	0x3cd1e295	0.025620738
27	0x3c8ed098	0.01743345
28	0x3d129f06	0.035796188
29	0xbc44b470	-0.01200591
30	0x3ce053e6	0.027383756
31	0xbc18f3a3	-0.009335431
32	0x3cdc62e7	0.026902629
33	0x3ceb8787	0.028751148
34	0x3d000995	0.031259138
35	0xbb9d9843	-0.004809411
36	0x3cbcb8ff	0.023037432
37	0xbc2eb279	-0.010662668
38	0x3cb1d5e0	0.021708429
39	0x3cef3114	0.029198207
40	0x3cc838cf	0.024441151
41	0xbc5b9f2b	-0.013404648
42	0xbc5b4d8d	-0.013385189
43	0x3cdb13d1	0.026742848
44	0xbbecba9b	-0.0072243935
45	0x3ceeda15	0.029156724
46	0x3ca48c7c	0.02008652
47	0x3d0c50e6	0.03425684
48	0x3d131041	0.035904173
49	0x3d02f89c	0.031975374
50	0x3ce36647	0.02775873
51	0xbc587182	-0.013210656
52	0xbbffec78	-0.0078101717
53	0x3cf974c8	0.030451193
54	0x3d0a78ba	0.03380654
55	0x3ccca7eb	0.024982413
56	0x3cce03b8	0.025148258
57	0x3cdde98b	0.027088901
58	0x3cf841b4	0.030304767
59	0xbbf8c08e	-0.0075913137
60	0x3cc6b494	0.024256028
61	0x3d7312ba	0.05934403
62	0x3c1943fc	0.009354588
63	0x3c4cd415	0.012501736

arith.constant3 f4 [32]
0	0x3d1d2ac7	0.038370874
1	0x3ce56437	0.028001888
2	0x3d10c2a1	0.035341863
3	0xbc7d09aa	-0.015444199
4	0x3cac8e47	0.021063937
5	0x3cd592f8	0.026071057
6	0x3d12ba63	0.035822283
7	0x3cdcea00	0.026967049
8	0x3d14db88	0.036342174
9	0x3d04d4f3	0.032429647
10	0x3d0101d6	0.03149589
11	0x3cf21844	0.029552586
12	0x3cf34176	0.0296943
13	0x3c4d4f75	0.012531151
14	0x3d01d2d6	0.03169521
15	0x3cb1ed53	0.02171961
16	0x3d073d4e	0.03301745
17	0x3d0b6071	0.03402752
18	0xbc8102cd	-0.015748406
19	0x3c7b0eb0	0.015323326
20	0x3d0ee338	0.03488466
21	0x3cfa9424	0.030588217
22	0x3ca0f22e	0.01964673
23	0x3cd2121d	0.025643403
24	0x3d1ebbdd	0.03875338
25	0xbb9378c3	-0.00450048
26	0x3d14419a	0.036195375
27	0x3cf324f8	0.029680714
28	0xbc1bd806	-0.009511953
29	0x3cee2c28	0.02907379
30	0x3cf06274	0.029343821
31	0x3cb886a5	0.022525141

arith.constant5 f4 [1, 1, 1, 16]
0	0xbd599ee8	-0.05313006
1	0x3e93573a	0.28777486
2	0x3f164659	0.5870109
3	0xbee82add	-0.45345202
4	0x3f2a4a3f	0.6651954
5	0x3ea1ed06	0.31626147
6	0xbec2bba9	-0.38033798
7	0xbeba60c3	-0.36401948
8	0x3ef8e4fc	0.486122
9	0x3f085d2b	0.53267163
10	0x3ea0b97b	0.3139151
11	0xbde3c77c	-0.11122033
12	0x3e2ab386	0.16670045
13	0xbe560b93	-0.20902853
14	0xbe7adead	-0.24499007
15	0x3ec1a97a	0.37824613

arith.constant6 f4 [16, 3, 3, 48]
0	0x3c58fc7a	0.013243789
1	0xbda7658f	-0.08173668
2	0x3d25cec1	0.04048038
3	0x3df0346d	0.117287494
4	0x3db13100	0.08651924
5	0x3d907ed8	0.070554435
6	0xbd465e83	-0.048429977
7	0x3d72187c	0.05910538
8	0xbdbb2c48	-0.09139305
9	0x3da032a8	0.07822162
10	0x3bba1682	0.0056789527
11	0xba8843e8	-0.0010396214
12	0xbdc8e2e6	-0.098089024
13	0x3da2a3ef	0.07941424
14	0xbd810366	-0.06299476
15	0x3d9936b5	0.07481138
16	0xbc246149	-0.01003296
17	0x3d8c321b	0.06845494
18	0x3cfcf21a	0.030877162
19	0xbc9f3cc0	-0.019438148
20	0xbd81bd30	-0.06334913
21	0xbd8195d6	-0.06327407
22	0x3de16c63	0.11007001
23	0x3d3e1d11	0.04641444
24	0xbd82a824	-0.063797265
25	0xbd2c8918	-0.04212293
26	0xbd777beb	-0.06042091
27	0xbd213a9c	-0.039362535
28	0x3d92edcc	0.071742624
29	0xbdce086b	-0.10060199
30	0xbc8f4459	-0.017488645
31	0x3d7a0f6f	0.061049875
32	0xbd685504	-0.056721702
33	0xbd187d2d	-0.037228752
34	0xbddf1d66	-0.10894279
35	0xbdf613b4	-0.12015477
36	0xbdad733b	-0.08469244
37	0x3e02f921	0.12790348
38	0xbc3b4a5f	-0.011431306
39	0xbd2dbe18	-0.042417616
40	0xbd923f1d	-0.07140944
41	0xbdac114f	-0.08401739
42	0x3a44c86d	0.00075066724
43	0xbdc32952	-0.095293656
44	0x3d505154	0.05085881
45	0x3d45d94a	0.048302926
46	0x3d2e225b	0.042513233
47	0xbca31e74	-0.019911982
48	0x3dc84799	0.09779281
49	0x3da2f34e	0.07956563
50	0xbcb47a2d	-0.022030914
51	0xbd949c3b	-0.07256361
52	0x3d5bde15	0.05367859
53	0x3df3b8fd	0.11900518
54	0x3d263b3f	0.040583845
55	0x3dce08f9	0.10060305
56	0x3dcd5371	0.10025681
57	0xbd26e8ed	-0.04074948
58	0x3dc711b2	0.09720172
59	0xbda9f30f	-0.08298313
60	0xbcdad6df	-0.026713787
61	0x3dd8fde8	0.10595304
62	0xbd88dd16	-0.06682794
63	0x3d598a65	0.0531105
64	0x3cf5db0f	0.030011682
65	0x3ba58a88	0.0050519146
66	0xbd5c6718	-0.053809255
67	0xbb80a010	-0.003925331
68	0xbcc13cbe	-0.023588534
69	0x3db4fb9c	0.08837053
70	0x3cf86ca6	0.030325245
71	0xbc171e13	-0.009223479
72	0x3dd9ed3a	0.106409505
73	0xbd25b599	-0.04045639
74	0x3de82f91	0.113371976
75	0x3d97d849	0.074143
76	0x3d1ab799	0.03777275
77	0xbdb1c02a	-0.086792305
78	0xbdc72712	-0.09724249
79	0x3cf198e8	0.029491857
80	0x3dda015c	0.106447905
81	0xbd28864f	-0.04114371
82	0xbe65af3a	-0.22430125
83	0xbd920a2b	-0.07130846
84	0x3dd9e4ba	0.10639329
85	0x3ddf9509	0.10917098
86	0x3da4b748	0.080427706
87	0x3d33f4db	0.043934684
88	0xbd3141e1	-0.043275718
89	0xbd994b84	-0.074851066
90	0xbc1683aa	-0.009186665
91	0x3d8a6877	0.06758206
92	0xbcbb978c	-0.022899412
93	0xbc536b10	-0.012903944
94	0xbd122fa6	-0.035689972
95	0x3d796820	0.060890317
96	0x3c4a31d8	0.012340985
97	0xbbdc4c01	-0.0067229276
98	0x3d523115	0.05131634
99	0x3c64d5e3	0.01396701
100	0x3d3d4464	0.0462078
101	0x3dd2ee8f	0.10299408
102	0xbd05700c	-0.03257756
103	0x3e016fbf	0.12640284
104	0x3cc0073b	0.023440948
105	0xbd46b227	-0.048509743
106	0x3c493060	0.0122796
107	0x3ddb7f5b	0.107176505
108	0xbd7dd52c	-0.061970875
109	0x3d119807	0.035545375
110	0x3d45bb1e	0.048274152
111	0xbc102e39	-0.008800083
112	0x3dc23f8a	0.09484775
113	0x3dbcf12e	0.09225689
114	0xbdb299a8	-0.08720714
115	0xbd1fcea9	-0.039015446
116	0x3d421c60	0.04739034
117	0xbce731b7	-0.028221948
118	0x3db355cb	0.08756598
119	0xbd5b4da9	-0.05354086
120	0x3db366c4	0.08759835
121	0xbd53cc57	-0.051708546
122	0xbc75507d	-0.014972803
123	0xbd8fe71d	-0.07026503
124	0xbd2f60d3	-0.04281695
125	0x3d86f6fc	0.06590077
126	0xbd079f92	-0.033111162
127	0x3d2d7b52	0.042353936
128	0xbd9f2ce5	-0.07772235
129	0x3db4f32c	0.08835444
130	0xbc4597ff	-0.0120601645
131	0xbdb76549	-0.089548655
132	0x3db1ff50	0.08691275
133	0xbc534cc9	-0.012896725
134	0xbd41f481	-0.047352318
135	0xb9b025ac	-0.00033597404
136	0xbca2c9d1	-0.019871624
137	0xbdc1e362	-0.09467198
138	0xbb9cf149	-0.0047895056
139	0xbd8c0465	-0.06836776
140	0xbcc7204f	-0.024307398
141	0x3d9aa4d3	0.07550969
142	0x3d278151	0.04089481
143	0xbd753929	-0.059868965
144	0xbd443a41	-0.047907118
145	0x3dbb82a0	0.09155774
146	0x3d4282d2	0.04748804
147	0x3dee319b	0.11630555
148	0x3dad850f	0.084726445
149	0x3ce516c1	0.027964951
150	0x3d39bbb4	0.045345023
151	0x3c6c89a4	0.014437113
152	0xbd9759fc	-0.0739021
153	0x3c25e27f	0.010124802
154	0xbd3a5b56	-0.04549726
155	0x3d6bd939	0.057580207
156	0x3db4873e	0.08814858
157	0xbc68f7c5	-0.014219229
158	0x3d47debd	0.048796404
159	0xbbbd7857	-0.005782168
160	0x3c591956	0.013250669
161	0x3dbca4d0	0.09211123
162	0xbd3616a3	-0.04445518
163	0xbc57b432	-0.0131655205
164	0x3c7ad89c	0.015310433
165	0x3db1668f	0.086621396
166	0x3d8b1efb	0.067930184
167	0xbbcd08dc	-0.0062571596
168	0x3c86838b	0.016420146
169	0xbcde7f8c	-0.027160428
170	0x3daf5715	0.085615315
171	0xbcc98d78	-0.02460359
172	0x3d974a0d	0.07387171
173	0xbb3fd425	-0.0029270735
174	0x3d6ecfbf	0.05830359
175	0x3d1067ca	0.03525523
176	0x3db8da3d	0.09026001
177	0x3d872189	0.06598193
178	0xbe83ff1f	-0.2578058
179	0x3d3f61d5	0.04672416
180	0x3da57f22	0.08080889
181	0x3cc5bf92	0.0241392
182	0xbd1d80b4	-0.03845282
183	0xbd4aac95	-0.049480993
184	0x3c1a10f8	0.00940346
185	0x3d9525ac	0.07282576
186	0xbd011268	-0.031511694
187	0x3da094ad	0.07840858
188	0x3de880c8	0.11352688
189	0x3d310875	0.043220956
190	0xbb84f6d8	-0.0040577464
191	0xba5e0f86	-0.0008470941
192	0x3d85aa5b	0.06526633
193	0xbd97faf1	-0.0742091
194	0x3d755d6c	0.059903547
195	0x3d997e81	0.07494832
196	0x3e0f6818	0.14004552
197	0x3de84c5a	0.11342688
198	0xbd12ebe7	-0.035869505
199	0x3e24c128	0.16089308
200	0xbd01a71f	-0.03165352
201	0xbd6a62ab	-0.057223003
202	0x3d0c220a	0.03421215
203	0x3de7e656	0.1132323
204	0x3ccd9ba6	0.025098633
205	0x3e16666c	0.14687508
206	0xbc6676cf	-0.014066412
207	0x3d82300c	0.063568205
208	0x3db9d921	0.09074617
209	0xbbb57784	-0.005537929
210	0xbac35927	-0.0014903889
211	0xbd17ccfe	-0.03706073
212	0x3d93b3a9	0.07212002
213	0x3da56310	0.08075535
214	0x3c225e0e	0.00991012
215	0x3db0aaae	0.086263046
216	0xbda9caf1	-0.08290661
217	0x3cebe275	0.028794507
218	0xbd71addc	-0.059003696
219	0xbda00a48	-0.07814461
220	0xbd84b5d0	-0.064799905
221	0x3946334e	0.00018901864
222	0xbd67a3b5	-0.056552608
223	0x3cfd729f	0.030938445
224	0x3d6b4d31	0.057446662
225	0xbc5174e6	-0.012784218
226	0xbd81c846	-0.06337027
227	0xbdf6e6ca	-0.12055738
228	0x3d1d3b3d	0.038386572
229	0x3e216376	0.15760598
230	0x3d95cc63	0.07314374
231	0x3d95c907	0.073137335
232	0x3dccf1e5	0.10007075
233	0x3d8e8dd3	0.069606446
234	0xbc95e92b	-0.01829966
235	0x3d1c9229	0.038225327
236	0xbd819249	-0.0632673
237	0x3d8e4cf3	0.06948271
238	0xbb93f0c4	-0.0045147855
239	0x3d3da0b9	0.046295855
240	0xbc1f29e9	-0.009714582
241	0x3dd6a5f7	0.10480874
242	0x3d45700c	0.04820256
243	0xbc27e8df	-0.010248392
244	0x3db4293c	0.08796927
245	0x3d017c3e	0.031612627
246	0xbd66615b	-0.05624519
247	0x3caea90e	0.021320846
248	0x3dbb7326	0.09152822
249	0xbd0927b6	-0.033485137
250	0xbc45e8d0	-0.012079433
251	0x3d7c1bb2	0.06154985
252	0xbba51b43	-0.0050386502
253	0xbb9922a7	-0.0046733203
254	0xbda11732	-0.07865752
255	0xbc820d50	-0.015875489

arith.constant7 f4 [32, 3, 3, 96]
0	0xbb512880	-0.003191501
1	0x3c345b2d	0.011008066
2	0x3d0d7352	0.034533806
3	0x3d119215	0.035539705
4	0x3cb42592	0.021990571
5	0x3ddd33e1	0.10800911
6	0xbd625363	-0.055255305
7	0xbc31f30a	-0.010861168
8	0x38bcfc0b	9.011485e-05
9	0xbc3b54d1	-0.011433796
10	0x3d707e29	0.058714066
11	0x3da37cf2	0.07982816
12	0x3c5a1227	0.013309992
13	0xbb2cc7b3	-0.0026364147
14	0x3d89ea58	0.06734151
15	0x3d1e9f17	0.03872594
16	0x3d9b336c	0.07578167
17	0x3de1a123	0.110170625
18	0x3da8fb0a	0.08251007
19	0x3de9de7b	0.11419388
20	0x3d108857	0.035286274
21	0xbcffd234	-0.031228162
22	0x3c81e31d	0.015855366
23	0x3d3078da	0.043084003
24	0x3c95f56a	0.0183055
25	0xbd2acb74	-0.041697934
26	0x3bb4a957	0.005513351
27	0xbb641050	-0.0034799762
28	0x3cb98d89	0.022650497
29	0xbc67d0a9	-0.01414887
30	0x3cdd3d83	0.02700687
31	0x3d463b4f	0.048396405
32	0x3d4db09f	0.050217267
33	0x3c18f752	0.0093363095
34	0x3be2b26a	0.0069182413
35	0xbd483a00	-0.048883438
36	0x3d4956ed	0.049155165
37	0x3d0e9a7a	0.03481529
38	0x3c009a00	0.007849216
39	0xbcfdafff	-0.03096771
40	0x3d0cebb4	0.03440447
41	0x3d716cac	0.05894153
42	0xbd0818de	-0.03322684
43	0x3b39d816	0.0028357557
44	0x3c95e501	0.018297674
45	0xbbff28b2	-0.0077868337
46	0x3d75d74e	0.060019784
47	0xbd2bb204	-0.041917816
48	0xbb1859ec	-0.0023246957
49	0x3d2ed5e6	0.04268446
50	0xbc3aaf2b	-0.011394302
51	0xbd00cdce	-0.03144627
52	0xbd851e20	-0.064998865
53	0x3d2523d6	0.04031738
54	0xbcf24d8c	-0.029577993
55	0xbc7f59d0	-0.015585378
56	0x3d92db47	0.0717073
57	0x3be86c08	0.0070929565
58	0xbc722cc9	-0.014781185
59	0xbc040072	-0.008056747
60	0xbc6d047a	-0.014466399
61	0xbb29442d	-0.002582799
62	0x3d473341	0.048632864
63	0x3d8b25bf	0.06794309
64	0x3b877a8f	0.004134483
65	0x3d9e4475	0.07727901
66	0xbd2d4649	-0.042303357
67	0xbc9c6fcd	-0.01909628
68	0x3daa12cc	0.083043665
69	0xbd65f0b5	-0.05613776
70	0xbbf50b34	-0.007478142
71	0x3d834b66	0.064108655
72	0x3d787ce3	0.060665976
73	0x3b8e78c1	0.004347891
74	0xbcbce1e7	-0.023056937
75	0x3c235138	0.0099680945
76	0x3db0ac5f	0.08626627
77	0x3cc86f85	0.02446724
78	0xbd675dfc	-0.056486115
79	0x3d3493b7	0.044086184
80	0x3d123638	0.03569624
81	0x3d7aa47a	0.061192013
82	0xbc8f266c	-0.017474376
83	0x3d0ed897	0.034874525
84	0xbd1e0c78	-0.03858611
85	0x3d882944	0.06648496
86	0x3d9aed10	0.07564747
87	0xbd6b6e9f	-0.057478543
88	0xbd5aa58e	-0.05338054
89	0xbd2a1d30	-0.04153174
90	0xbd3c34f1	-0.045948926
91	0xbc7bb343	-0.015362564
92	0xbd061bc2	-0.032741316
93	0xbb1005ec	-0.0021976186
94	0xbb9f189b	-0.004855228
95	0x3d35cf04	0.04438688
96	0x3d525fe2	0.051360972
97	0x3ca292d3	0.019845402
98	0x3d93227f	0.07184314
99	0x3bec2eb6	0.007207717
100	0xbd07c526	-0.033147
101	0x3da3fe9a	0.08007546
102	0xbc77f6d9	-0.015134537
103	0xbcfde1fb	-0.030991545
104	0xbb2da11f	-0.002649374
105	0x3da4f695	0.08054844
106	0xbc74e209	-0.014946469
107	0x3d9d966e	0.07694708
108	0x3cac174d	0.021007204
109	0xbb15791e	-0.0022807787
110	0x3c3c94fc	0.01151013
111	0x3c312c85	0.010813837
112	0x3d5f8048	0.054565698
113	0x3ca85290	0.020547181
114	0x3c5d56bb	0.013509448
115	0x3d44288c	0.04789023
116	0xbbf01e4d	-0.007327831
117	0x3cc22750	0.023700386
118	0x3d8cdb29	0.06877739
119	0x3dcb4eff	0.09927177
120	0xbc54eae4	-0.012995455
121	0x3d1f9cfe	0.03896808
122	0xba9fa7af	-0.0012180711
123	0x398b5b62	0.00026580231
124	0x3c3ab8bf	0.011396586
125	0x3cd88ecd	0.02643528
126	0x3d894c3b	0.06703993
127	0xbd7b7f9c	-0.061400995
128	0x3d9946c3	0.074842
129	0x3d71ce1b	0.059034448
130	0x3c2bd7b3	0.010488438
131	0x3d1d12c0	0.03834796
132	0x3c7cf24c	0.015438627
133	0xbcbbc4ce	-0.022920992
134	0xbc8717e1	-0.016490879
135	0x3d22d836	0.039756976
136	0xbc73bdc1	-0.014876784
137	0xbc7b9856	-0.015356144
138	0xbd0144d2	-0.031559773
139	0x3cf5acd5	0.02998964
140	0xbc01f596	-0.007932087
141	0xbc5e2293	-0.013558048
142	0x3d0e7130	0.034775913
143	0x3d274f8b	0.040847342
144	0x3dc1d47c	0.09464356
145	0xbd2f0264	-0.04272689
146	0x3d43c8f0	0.04779905
147	0xbc923f6b	-0.017852506
148	0x3d5def56	0.054183327
149	0x3ce17a6a	0.027524192
150	0xbc61ffa2	-0.013793858
151	0x3d491189	0.04908899
152	0xbcda605d	-0.026657278
153	0x3d8d9069	0.0691231
154	0x3da7277e	0.081618294
155	0x3d9b0e8c	0.07571134
156	0x3d2bd070	0.04194683
157	0x3ddd3cbb	0.10802599
158	0x3d0d9ec7	0.03457525
159	0x3d00f02c	0.031479046
160	0x3b99353a	0.0046755346
161	0xbcfb9b7a	-0.030713785
162	0x3c2aab05	0.010416751
163	0x3d5d7d3f	0.054074522
164	0x3da3c833	0.07997169
165	0x3d9244d3	0.071420334
166	0x3d88a492	0.06672014
167	0x3cb05585	0.021525154
168	0xbc915afd	-0.017743582
169	0xbce8bfae	-0.028411712
170	0xbcbc926c	-0.023019038
171	0x3d982f2f	0.074308746
172	0x3d3be226	0.04586997
173	0xbb561dea	-0.0032671639
174	0x3d08a0d6	0.03335651
175	0x3d3971b7	0.045274463
176	0xbc7e8a4a	-0.0155359
177	0xbc823de5	-0.015898654
178	0xbd85b24e	-0.065281495
179	0xbc6cd05a	-0.014453972
180	0xbcd1afe1	-0.02559656
181	0xbb44aa81	-0.0030008855
182	0x3c73ca76	0.014879813
183	0xbcdc810f	-0.026917009
184	0x3c9dc9d3	0.019261276
185	0x3d90c8b7	0.07069533
186	0x3d29f9b3	0.041497897
187	0x3d9225bb	0.07136103
188	0xbd5be6a4	-0.053686753
189	0x3d1d1159	0.038346622
190	0x3d86df39	0.06585545
191	0x3d22b589	0.039723907
192	0x3c784746	0.015153712
193	0x3da23eb6	0.079221174
194	0x3d9803f3	0.07422628
195	0xbc8eff2a	-0.017455656
196	0xbcba962d	-0.022776688
197	0xbce6a266	-0.02815361
198	0xbb238537	-0.0024951228
199	0xbd200827	-0.039070275
200	0xbd084041	-0.033264402
201	0x3db0edbc	0.08639094
202	0x3cabf3f5	0.020990351
203	0x3d8557b2	0.06510867
204	0xbca26ca3	-0.019827193
205	0x3d1bcd38	0.03803751
206	0x3d2a1ded	0.041532446
207	0x3db0994a	0.086229876
208	0x3cc3362e	0.023829546
209	0xbced7fca	-0.028991599
210	0x3d814bfa	0.063133195
211	0x3d07700e	0.033065848
212	0x3da4a426	0.08039121
213	0x3daadf48	0.08343369
214	0xbd2a5bb3	-0.041591357
215	0x3ca5d481	0.020242931
216	0xbca88244	-0.020569928
217	0x3d3b50d5	0.045731384
218	0x3d9506ff	0.07276725
219	0xbc9bb6ce	-0.019008067
220	0x3bc25251	0.005930223
221	0xbd6089ce	-0.05481892
222	0xbd05dfe0	-0.032684207
223	0x3c3ca55f	0.011514037
224	0x3d03470a	0.03205017
225	0x3d6f2918	0.0583888
226	0x3d2de0d3	0.042450737
227	0xbc17e88b	-0.009271751
228	0x3d2ca80d	0.042152453
229	0xbd51bfe5	-0.051208396
230	0xbc220aef	-0.009890302
231	0x3d7d78e9	0.061882887
232	0xbd5b8a4b	-0.053598683
233	0xbcc45806	-0.023967754
234	0xbd18d355	-0.037310917
235	0x3d0bb5eb	0.034109037
236	0x3d8db0fe	0.06918524
237	0x3d2211a2	0.039567597
238	0xbd0559a4	-0.03255619
239	0xbc0683c8	-0.00821013
240	0x3d48ad61	0.048993472
241	0x3d9dfe70	0.07714546
242	0x3c7bf142	0.015377345
243	0x3d1d3519	0.038380716
244	0x3d914516	0.07093255
245	0xbbe32444	-0.0069318134
246	0xbcc39e1c	-0.023879103
247	0xbce09365	-0.027414033
248	0x3cdc2b25	0.026876042
249	0x3c3d49f9	0.011553281
250	0x3d6162c4	0.05502583
251	0x3d10f19a	0.03538666
252	0xbbfa7480	-0.0076432824
253	0xbcdf85c2	-0.02728546
254	0x3b9d5c2a	0.0048022466
255	0x3d79f153	0.06102116

arith.constant8 f4 [64, 3, 3, 32]
0	0xbcae82ec	-0.021302663
1	0x3b96a872	0.004597717
2	0x3dbdb0b1	0.09262217
3	0x3cb413a8	0.02198203
4	0x3c52f3b6	0.012875488
5	0xbd363718	-0.044486135
6	0x3db30682	0.08741476
7	0x3d96b1a2	0.073580995
8	0xbc9b65e8	-0.018969491
9	0x3daeee60	0.0854156
10	0xbc80f71b	-0.01574283
11	0x3da1bc25	0.07897214
12	0x3da054c5	0.078286685
13	0x3d02f712	0.031973906
14	0xbc9add7b	-0.018904438
15	0x3dbf6299	0.09344978
16	0xbd2d25d1	-0.042272393
17	0x3d943388	0.07236391
18	0x3de219a5	0.110400476
19	0xbcd89500	-0.026438236
20	0xbd7ce3f7	-0.06174084
21	0xbda10821	-0.078628786
22	0xbd4bafcd	-0.049728204
23	0xbd8faf41	-0.07015849
24	0xbd0ac368	-0.03387776
25	0xbd8fc9a4	-0.07020882
26	0xbd20c898	-0.0392538
27	0xbd65414b	-0.05597047
28	0x3d6c7426	0.057727955
29	0x3ba40a7a	0.0050061317
30	0x3d555626	0.05208411
31	0xbcf576ec	-0.029963933
32	0x3c6999af	0.014257832
33	0xbd271e3f	-0.04080033
34	0xbd392411	-0.04520041
35	0xba7d0196	-0.00096514204
36	0xbc7be013	-0.015373248
37	0x3c889b33	0.016675567
38	0xbcb02931	-0.021504017
39	0x3de6fb11	0.11278356
40	0x3da77ea0	0.08178449
41	0xbbde7fb7	-0.006790127
42	0xbcd0a05a	-0.025467087
43	0x3d9f710a	0.07785232
44	0xbca60c69	-0.02026959
45	0xbdabc453	-0.08387055
46	0x3cd62ad1	0.026143463
47	0xbd8da05f	-0.06915354
48	0x3dadef83	0.08492949
49	0x3da5f836	0.08103983
50	0xbbf0afd0	-0.0073451772
51	0x3d824c3a	0.06362195
52	0xbd0956ec	-0.03353016
53	0x3d0ddf2d	0.034636665
54	0xba8d7cdb	-0.0010794656
55	0xbbc323f8	-0.0059552155
56	0xbd40f62c	-0.047109768
57	0xbd114aca	-0.035471715
58	0xbb0939c4	-0.0020938972
59	0x3d926600	0.07148361
60	0x3cb0b537	0.021570785
61	0x3dd2e928	0.10298377
62	0x3d16913f	0.03675961
63	0xbbc87566	-0.0061175106
64	0x3cc6b21b	0.02425485
65	0xbd3658d0	-0.044518292
66	0xbb4f6969	-0.0031648523
67	0xbd02e166	-0.031953238
68	0x3db42ccf	0.08797609
69	0xbd361d82	-0.044461735
70	0xbd43536c	-0.04768698
71	0x3d5e1cbb	0.05422662
72	0x3d99b4bf	0.07505178
73	0xbc8bce20	-0.017066061
74	0xbc4dbff7	-0.012557975
75	0x3daa9aa8	0.083302796
76	0x3d304c71	0.04304165
77	0x3c818e4c	0.015814923
78	0xbda37e95	-0.07983128
79	0x3d166851	0.036720578
80	0x3d8e27a0	0.069411516
81	0x3d146d56	0.036237083
82	0xbc89f396	-0.016839784
83	0xbce5ae95	-0.028037349
84	0xbd647239	-0.055772994
85	0x3d0782b9	0.03308365
86	0xbd48ce55	-0.0490249
87	0xbdb38e46	-0.08767371
88	0xbc1e07de	-0.00964543
89	0x3d428616	0.047491156
90	0xbc124c36	-0.008929303
91	0xbdc0b66c	-0.09409794
92	0x3da61eb3	0.08111324
93	0x3da3c291	0.07996095
94	0x3d9953ae	0.07486664
95	0x3d1f09b1	0.0388276
96	0x391b1ba0	0.00014792243
97	0x3d0adce5	0.033902068
98	0x3da48ed4	0.08035055
99	0x3d33f1a8	0.043931633
100	0x3ca5d149	0.020241397
101	0x3ce1f5b2	0.027582977
102	0xbca4e9c3	-0.020130998
103	0x3db80d8a	0.08986957
104	0x3dc10c45	0.09426168
105	0x3dff6c63	0.12471845
106	0x3c295d58	0.010337196
107	0xbd58b299	-0.0529047
108	0x3c4dfd80	0.012572646
109	0xbd916cba	-0.07100816
110	0x3d9c00e3	0.07617357
111	0x3d472cd8	0.04862675
112	0x3c005974	0.007833827
113	0x3d1c6dab	0.038190525
114	0x3d6ca7ed	0.057777334
115	0x3d947817	0.07249468
116	0xbd58b981	-0.052911285
117	0x3cb6d09b	0.022316268
118	0x3bfb6858	0.007672351
119	0x3cc5d4bc	0.024149291
120	0xbc5def95	-0.01354589
121	0x3a491b57	0.00076716155
122	0x3d429f8b	0.047515433
123	0xbd4cabce	-0.049968533
124	0xbcdcd205	-0.026955614
125	0xbc70291a	-0.014658237
126	0x3dc16645	0.094433345
127	0x39daaf0f	0.0004171063
128	0x3d7a7de1	0.061155204
129	0x3d8726eb	0.0659922
130	0x3d037c7b	0.032101136
131	0xbd6bf648	-0.05760792
132	0xbb351722	-0.0027632196
133	0xbcf267cc	-0.02959051
134	0x3dc75040	0.09732103
135	0x3e132c64	0.14372402
136	0x3cc522cc	0.024064444
137	0x3cf752ac	0.030190788
138	0x3cbb96d8	0.022899076
139	0x3c5c34bc	0.013440307
140	0x3d4431e6	0.04789915
141	0x3cb41821	0.021984162
142	0x3d9c684c	0.076370806
143	0xbc334c9f	-0.010943561
144	0x3aacd603	0.0013186339
145	0x3c81d7d0	0.015849978
146	0x3d2661c2	0.040620573
147	0xbca36313	-0.019944703
148	0xbda326d4	-0.0796639
149	0xbd5b8194	-0.053590372
150	0x3d51a7da	0.051185466
151	0x3c93fbe9	0.018064456
152	0xbcd69ee9	-0.026198821
153	0x3c937fda	0.0180053
154	0x3ccd8041	0.02508557
155	0x3ce9178b	0.028453609
156	0x3d8c121c	0.068393916
157	0x3d681e60	0.056669593
158	0x3def24c5	0.11676935
159	0xbda2f7c5	-0.079574145
160	0xbbd93279	-0.0066283313
161	0x3c145059	0.0090523595
162	0x3dc092f1	0.09403027
163	0x3a336a20	0.0006844122
164	0xbcc9707a	-0.024589766
165	0x3c74492e	0.0149100255
166	0x3d8bee68	0.06832582
167	0x3cfaa5b5	0.030596593
168	0x3d4f727d	0.050646294
169	0xbcf5e44b	-0.030016085
170	0x3d1be5b5	0.038060863
171	0x3d509143	0.050919782
172	0x3c3f7da8	0.011687674
173	0x3caba324	0.020951815
174	0x3cb6a311	0.022294553
175	0xbceda008	-0.029006973
176	0x3c80c78f	0.015720157
177	0x3d95ae33	0.073086165
178	0xb9c64c73	-0.00037822462
179	0xbcbef52f	-0.023310272
180	0xbb64807b	-0.003486662
181	0xbd65e4bb	-0.056126337
182	0x3dba60e9	0.091005154
183	0xbdb2866a	-0.08717044
184	0x3d92651d	0.07148192
185	0x3d4d5e40	0.050138712
186	0x3d6c9edf	0.0577687
187	0xbd193485	-0.037403602
188	0x3d4a1306	0.04933455
189	0x3ca7e018	0.020492598
190	0x3ddce939	0.10786671
191	0xbc80e534	-0.015734293
192	0x3dc0bbe2	0.09410836
193	0x3d865d91	0.06560815
194	0xbc8e64ce	-0.017382052
195	0x3d8ca927	0.06868201
196	0x3de6e995	0.11275021
197	0x3d3710c3	0.04469372
198	0x3d02c393	0.031924795
199	0x3dcc6fcd	0.09982262
200	0xbbad60ab	-0.0052910647
201	0x3d96277e	0.07331751
202	0x3d7bce54	0.061476067
203	0xbd37c1bb	-0.04486249
204	0x3d27192c	0.04079549
205	0x3d4af442	0.04954935
206	0x3d066aac	0.032816574
207	0xbc365e9a	-0.011130953
208	0xbcbea7b7	-0.023273332
209	0x3d642b44	0.055705324
210	0x3d3dadc2	0.046308286
211	0x3c7af167	0.015316344
212	0xbaa2ec57	-0.0012430054
213	0x3b803766	0.003912854
214	0xbd6a4d49	-0.05720261
215	0x3d7521e9	0.059846792
216	0xbd7cbdc5	-0.061704416
217	0x3c5dd8ac	0.013540428
218	0x3dc04d30	0.09389722
219	0xbd3e7b56	-0.04650434
220	0xbc24ddea	-0.010062674
221	0x3dd7a07c	0.10528657
222	0x3d8e7942	0.06956722
223	0x3d6f6376	0.058444463
224	0x3bcd0194	0.0062562916
225	0xbd6c3951	-0.05767185
226	0x3da8897c	0.08229348
227	0x3db0d6b8	0.08634704
228	0xbbfbda42	-0.0076859305
229	0xbd7851e2	-0.060624965
230	0x3dd15334	0.10220948
231	0x3d27555a	0.040852882
232	0x3d6c6c82	0.05772067
233	0x3de187da	0.1101224
234	0x3d6ca093	0.057770323
235	0x3caa156b	0.020762166
236	0x3c820daf	0.015875665
237	0xbc9240b2	-0.017853115
238	0xbd37293f	-0.04471707
239	0x3d6306e9	0.055426512
240	0x3ddc73dc	0.10764286
241	0xbd7ac821	-0.061226014
242	0xbd8c4c62	-0.06850506
243	0xbd3399f1	-0.04384798
244	0x3bbba3a1	0.005726293
245	0xbbd332c3	-0.0064452603
246	0xbcdd6b8a	-0.027028818
247	0xbd77fcc1	-0.06054378
248	0xbd67bf1a	-0.056578733
249	0x3c823a58	0.015896961
250	0x3d8bdd54	0.06829324
251	0xbccc3d7e	-0.024931666
252	0xbd42d6e3	-0.047568213
253	0xbcfef6c8	-0.031123534
254	0x3c25f0b0	0.010128185
255	0xbd526fdb	-0.051376205

arith.constant9 f4 [32, 3, 3, 16]
0	0xbdb9c246	-0.09070258
1	0xbc76f60c	-0.015073311
2	0x3d121a40	0.035669565
3	0xbcc8af35	-0.024497608
4	0xbd79c7e7	-0.060981657
5	0xbd87033e	-0.06592415
6	0xbd627451	-0.05528671
7	0x3d0c4cbe	0.034252875
8	0x3d6f2232	0.05838222
9	0x3d74f727	0.059806015
10	0x3dd2e84b	0.102982126
11	0xb7e99489	-2.7844932e-05
12	0xbd7fd7aa	-0.062461533
13	0xbd7e6397	-0.062106695
14	0x3d6efaee	0.058344774
15	0x3c38bbee	0.011275275
16	0xbd3a5459	-0.045490596
17	0xbd45a44d	-0.048252393
18	0x3e23f1e7	0.16010247
19	0x3df57370	0.119849086
20	0x3e02a2fd	0.12757488
21	0x3dcdc283	0.10046866
22	0x3d18d6ba	0.037314154
23	0xbc5c2bae	-0.013438148
24	0xbdc3faef	-0.09569346
25	0xbd9aa64c	-0.0755125
26	0x3da420ee	0.08014093
27	0xbdca5301	-0.09879113
28	0x3e0d3ce2	0.13792756
29	0x3e0d8ba0	0.13822794
30	0xbdb83c51	-0.089958794
31	0xbb1680a0	-0.002296485
32	0x3d607b8b	0.05480532
33	0xbd39545a	-0.04524646
34	0xbc7cde5e	-0.015433876
35	0xbd8c64ab	-0.068551384
36	0x3b7c0fb9	0.003846152
37	0x3d6dd649	0.058065686
38	0x3c9d68f1	0.019215079
39	0xbd912932	-0.070879355
40	0xbe1a88c4	-0.15091234
41	0xbcb5c31c	-0.022187762
42	0xbbb9b8d1	-0.005667784
43	0xbd49e455	-0.04929002
44	0x3dadde6c	0.08489689
45	0x3e1cbb0c	0.15305728
46	0x3c5fa362	0.013649793
47	0x3c7cd2c7	0.015431113
48	0xbdb4116e	-0.08792387
49	0xbccb1493	-0.024790084
50	0x3df933ab	0.12168058
51	0xbca3472a	-0.019931395
52	0x3d3710c6	0.04469373
53	0x3daa1712	0.083051816
54	0xbda6afcb	-0.081389986
55	0x3d979c7c	0.07402894
56	0x3d0e5f6a	0.034758963
57	0xbdfd95eb	-0.1238211
58	0xbd42f983	-0.047601234
59	0x3a59e9a7	0.000831271
60	0xbcd6a81e	-0.026203211
61	0xbd499ea7	-0.04922357
62	0x3e184554	0.14870197
63	0xbc6fd3cc	-0.014637899
64	0xbcbd1f5c	-0.023086242
65	0xbd7f5fe3	-0.062347304
66	0x3e03691e	0.12833068
67	0x3dff4525	0.1246436
68	0x3dd6e496	0.10492818
69	0x3e1223b4	0.14271432
70	0xbd23af6f	-0.03996223
71	0x3d4f3043	0.050583135
72	0xbd08f7e3	-0.03343953
73	0xbcbc3d60	-0.022978485
74	0x3e0d8706	0.13821039
75	0x3c297072	0.01034175
76	0x3d546b83	0.051860344
77	0x3d8ce3cd	0.06879387
78	0x3df268a0	0.11836362
79	0x3dbe242a	0.092842415
80	0x3e1051c4	0.14093691
81	0x3d1ae41d	0.037815202
82	0x3dfa37a3	0.12217643
83	0x3cc0e736	0.02354775
84	0x3cc413ea	0.023935277
85	0xbd99cab4	-0.07509366
86	0xbdcf7e47	-0.10131507
87	0x3c82644e	0.01591697
88	0xbdaf5fa7	-0.08563166
89	0xbd954fd9	-0.0729062
90	0x3d86592d	0.06559978
91	0x3d8f11c9	0.06985814
92	0xbd8fe5c2	-0.07026245
93	0x3e174551	0.14772536
94	0xbc29b14a	-0.01035721
95	0xbc99f804	-0.01879502
96	0xbd997889	-0.074936934
97	0xbdb4be1c	-0.08825323
98	0x3df98924	0.121843606
99	0x3b98d83b	0.0046644486
100	0x3d84f768	0.064925015
101	0x3bd14e78	0.006387528
102	0x3dcc7afa	0.099843934
103	0xbdeba029	-0.115051575
104	0x3c4699e2	0.012121649
105	0xbdbc1411	-0.09183515
106	0x3d98ecec	0.07467064
107	0x3db91e96	0.09039037
108	0x3d69fb38	0.057124346
109	0x3ca39517	0.019968553
110	0xbbb25410	-0.00544215
111	0xbd788693	-0.060675215
112	0xbd8229b0	-0.063556075
113	0xbdd51786	-0.10404877
114	0xbcd1e812	-0.025623355
115	0x3e094d54	0.13408405
116	0x3dcc228f	0.09967529
117	0xbd86c3c5	-0.06580309
118	0xbdcf9e7c	-0.1013765
119	0x3c23ff87	0.010009653
120	0x3c54a51b	0.012978817
121	0xbdaabbf4	-0.083366305
122	0x3d9b2e77	0.07577222
123	0xbd37d0d2	-0.04487688
124	0xbd650a2e	-0.05591791
125	0x3da4a482	0.0803919
126	0xbdbb6d4b	-0.09151705
127	0xbd0165e9	-0.03159133
128	0x3e03b2b1	0.12861134
129	0xbdf004fd	-0.117197014
130	0x3d0db5ca	0.034597196
131	0xbd1d0ca6	-0.03834214
132	0xbd9150cf	-0.07095491
133	0xbd2ff67d	-0.04295968
134	0x3c7ac57f	0.015305876
135	0x3dcaaf2c	0.09896693
136	0xbd3aa4f2	-0.04556746
137	0xbde00f85	-0.1094046
138	0xbbab2383	-0.005222739
139	0xbc9f9606	-0.019480716
140	0xbc4328a5	-0.011911546
141	0x3cef5603	0.029215818
142	0x3d9c0fbc	0.076201886
143	0xba1ecf39	-0.00060581
144	0x3dd9e1cc	0.106387705
145	0xbddfa218	-0.10919589
146	0x3cdc3348	0.026879922
147	0x3d3b30c3	0.0457008
148	0x3d9f9176	0.07791416
149	0x3db02058	0.08599919
150	0xbd09e9ac	-0.033670112
151	0x3ca22332	0.019792173
152	0xbdc1402d	-0.09436069
153	0x3cbb3ced	0.0228562
154	0xbd6efaf1	-0.058344785
155	0x3d833ba7	0.06407862
156	0x3c927257	0.017876787
157	0xbd68663d	-0.056738127
158	0x3d6be05e	0.05758702
159	0xbd5875ee	-0.05284684
160	0xbd778532	-0.06042976
161	0x3d361ab8	0.044459075
162	0x3cf28462	0.02960414
163	0xbdfd11d4	-0.12356916
164	0xbd376815	-0.044776995
165	0x3d89e0bb	0.06732317
166	0xbc17964f	-0.009252145
167	0x3d7fcb45	0.062449712
168	0x3dccebad	0.10005889
169	0xbbd12b44	-0.0063833315
170	0x3e14af47	0.14519988
171	0xbca48a43	-0.02008546
172	0x3c9429e7	0.018086387
173	0x3cbbc987	0.022923244
174	0x3af389ad	0.0018580459
175	0x3deec707	0.11659055
176	0x3db4f841	0.08836413
177	0xbd5b47ae	-0.053535156
178	0x3ca24330	0.019807428
179	0xbde8f4e2	-0.11374833
180	0xbdc0f401	-0.0942154
181	0x3dbb4efc	0.091459244
182	0x3daaa606	0.08332448
183	0x3dc49a9d	0.09599803
184	0x3dc30ab4	0.09523526
185	0x3d230f5d	0.039809573
186	0xbb33ec07	-0.0027453916
187	0xbd5a9525	-0.05336489
188	0x3c9ba77d	0.019000763
189	0x3d73de59	0.05953822
190	0x3d795c9e	0.060879342
191	0x3cf604ce	0.030031588
192	0xbdc1e0b2	-0.09466685
193	0xbd4e1e9e	-0.050322168
194	0xbd47ab58	-0.04874739
195	0xbd203827	-0.03911605
196	0x3df26a11	0.11836637
197	0x3d280e0d	0.041029025
198	0xbd57e46f	-0.052708086
199	0xbc9ed352	-0.019387875
200	0x3dd0b306	0.10190396
201	0xbb958d6e	-0.004563979
202	0x3deb4bfb	0.114891015
203	0xbd18638e	-0.037204318
204	0xbc84413c	-0.016144387
205	0x3e012854	0.1261304
206	0x3e03acae	0.12858841
207	0x3de614b7	0.1123442
208	0x3bc10eb0	0.0058916435
209	0xbc9518af	-0.018200247
210	0xbdfd0805	-0.12355045
211	0x3d111439	0.035419676
212	0x3d0f2275	0.03494497
213	0x3d5c12d5	0.053728897
214	0x3da83467	0.0821312
215	0xbda0e2f9	-0.078557916
216	0xbd4995e1	-0.0492152
217	0xbe036318	-0.1283077
218	0xbc304c85	-0.010760431
219	0xbdf039f1	-0.117298014
220	0xbd564830	-0.052314937
221	0xbd1278c8	-0.035759717
222	0x3e0d2210	0.13782525
223	0x3d9051c6	0.07046847
224	0xbde4f13e	-0.11178826
225	0xbdf50f70	-0.11965835
226	0xbd19cf46	-0.037551187
227	0x3db095a1	0.086222894
228	0x3bd0cf4a	0.006372367
229	0x3d8b2ae9	0.06795294
230	0xbcc0b440	-0.02352345
231	0xbdd5c6ae	-0.10438286
232	0xbdf950e1	-0.121736296
233	0xbdfad393	-0.12247386
234	0x3d87b65a	0.06626578
235	0xbb497987	-0.0030742602
236	0x3d5c18fc	0.053734764
237	0x3df79e9c	0.12090799
238	0xbd0e1d64	-0.034695998
239	0x3de08091	0.10962022
240	0x3dc4efee	0.096160755
241	0xbb922dab	-0.0044610105
242	0xbd5e759f	-0.05431139
243	0x3d7d8eaf	0.06190365
244	0x3d221377	0.039569344
245	0xbd74c455	-0.05975755
246	0xbb543ba5	-0.0032384184
247	0xbd715341	-0.058917288
248	0xbdda2f06	-0.106535
249	0x3da1a1b6	0.07892172
250	0x3dd325cb	0.10309943
251	0xbd879a8d	-0.06621275
252	0xbd64c330	-0.055850208
253	0x3d4c8b90	0.049937785
254	0xbced492f	-0.02896556
255	0xbaa6d3d1	-0.0012727921

functional_1/conv2d_1/convolution f4 [16, 3, 3, 3]
0	0x3e07e31f	0.13270234
1	0xbc2e4761	-0.010637135
2	0xbcd8449e	-0.026399907
3	0xbcc647cc	-0.024204157
4	0x3db41fbc	0.08795115
5	0x3db2a5ef	0.087230556
6	0x3d1b8872	0.03797192
7	0x3df2ac0e	0.11849223
8	0x3d16c2ff	0.036807057
9	0x3d37767c	0.04479073
10	0xbe3c0542	-0.1836138
11	0xbd939f77	-0.0720815
12	0x3ce602ca	0.028077502
13	0xbdd65fd9	-0.104675
14	0xbb68792c	-0.0035472615
15	0xbe4939be	-0.19650933
16	0xbe06e833	-0.13174514
17	0x3d811896	0.063035175
18	0x3daa6faf	0.08322083
19	0xbe1cdcde	-0.15318629
20	0x3e14d8d1	0.14535834
21	0x3e123fd1	0.14282157
22	0x3e09cec1	0.13457777
23	0xbe1e4319	-0.15455283
24	0x3cfa67b1	0.030567022
25	0xbe03dcc6	-0.12877187
26	0x3dfca6c2	0.12336494
27	0xbda5b2a4	-0.080907136
28	0xbd2351f4	-0.03987308
29	0x3e37fd84	0.17967802
30	0x3d390324	0.04516901
31	0xbe0973ed	-0.13423128
32	0xbd5a599c	-0.053308114
33	0x3d25203b	0.04031394
34	0xbe1674b0	-0.1469295
35	0x3d6f2f42	0.058394678
36	0xbb849f2b	-0.0040472946
37	0x3e20dca7	0.15709172
38	0xbcfb5085	-0.030678043
39	0x3e244c16	0.1604465
40	0xbdbbe855	-0.09175173
41	0x3df15628	0.11784011
42	0x3dfef51d	0.124490954
43	0xbe345a1e	-0.17612502
44	0xbc5f1e20	-0.013618022
45	0x3de59b14	0.112112194
46	0x3e2f1aaf	0.17100023
47	0xbc161369	-0.009159901
48	0x3e182421	0.14857532
49	0xbbf31b66	-0.0074190376
50	0xbd3610bd	-0.044449557
51	0xbdd10f98	-0.102080524
52	0x3dc10f73	0.09426775
53	0x3db147dd	0.08656285
54	0x3d496cd8	0.049176067
55	0x3e05a054	0.13049442
56	0x3d8058ba	0.06266923
57	0x3d284734	0.04108353
58	0xbd7c1067	-0.06153908
59	0xbd029f8d	-0.03189044
60	0xbe1774ca	-0.14790645
61	0xbe069d0b	-0.13145845
62	0x3d8e83f3	0.06958761
63	0x3c5abf8d	0.013351333
64	0xbc4146a2	-0.011796625
65	0x3e480e26	0.19536647
66	0xbcf6b7d6	-0.030116957
67	0xbded19b7	-0.1157717
68	0x3e429fd7	0.19006287
69	0xbe30e9d9	-0.17276706
70	0xbd9f6d10	-0.07784474
71	0x3d487fe8	0.048950106
72	0xbde5f5bf	-0.11228513
73	0xbdec3aad	-0.11534629
74	0xbce49aad	-0.027905786
75	0xbdde1651	-0.108441
76	0xbcfaa0d9	-0.030594276
77	0x3e594027	0.21215878
78	0x3e17f023	0.14837699
79	0xbc2fc40f	-0.010727896
80	0x3d89ec6a	0.067345455
81	0x3c976b12	0.018483672
82	0xbdf4e4d9	-0.11957712
83	0x3dfb0f34	0.12258759
84	0xbde37f75	-0.11108295
85	0xbc37f6cd	-0.0112282755
86	0x3dc471f8	0.0959205
87	0x3ddae86a	0.10688861
88	0xbe03d775	-0.12875159
89	0x3cbd4110	0.023102313
90	0xbdc6a8d9	-0.09700174
91	0x3e0224dc	0.12709373
92	0xbdb3b045	-0.08773855
93	0x3d7ed8ea	0.062218584
94	0xbc52fe40	-0.012878001
95	0x3d2ab599	0.04167709
96	0xbdffa96c	-0.124834865
97	0xbd511e2b	-0.05105416
98	0x3d33f6a9	0.043936405
99	0xbd83e1f3	-0.06439581
100	0x3da2c4a8	0.079476655
101	0x3dc96d63	0.09835317
102	0xbdddf061	-0.10836864
103	0xbe40ccd8	-0.18828142
104	0x3e1766e4	0.14785343
105	0xbcb2638b	-0.021775981
106	0x3e27f9f2	0.1640394
107	0xbd62b211	-0.0553456
108	0xbd9c6e20	-0.07638192
109	0xbde64f26	-0.11245565
110	0x3a5eb81d	0.0008496063
111	0xbdfb8765	-0.12281684
112	0x3b5149ef	0.0031934937
113	0xbd544cd8	-0.051831096
114	0xbe17f6d0	-0.14840245
115	0x3de65a7d	0.11247728
116	0x3debebf2	0.11519612
117	0x3e024dc2	0.12724975
118	0xbcda6a1e	-0.026661929
119	0xbd9be6b3	-0.07612362
120	0xbe0c059a	-0.13674012
121	0x3e1d0c86	0.15336809
122	0xbe15d22b	-0.14630954
123	0xbe0520e5	-0.1300083
124	0x3c9308f1	0.0179486
125	0x3ceab3d8	0.02865021
126	0xbd5ffa54	-0.05468209
127	0x3e1ef320	0.15522432
128	0xbcb4d811	-0.022075685
129	0x3e2b5f5a	0.16735592
130	0x3e1c7404	0.15278631
131	0xbe0423da	-0.12904301
132	0xbd3f7654	-0.046743706
133	0x3e0ffb7c	0.14060777
134	0x3e2afe18	0.16698492
135	0x3e0d1bd9	0.13780154
136	0xbc1fa160	-0.009743065
137	0x3c9f1cd8	0.019422933
138	0x3e38a406	0.1803132
139	0x3da55334	0.0807251
140	0xbe0f2bed	-0.139816
141	0xbd4db061	-0.050217036
142	0xbd86667f	-0.06562518
143	0x3d6d65db	0.057958465
144	0xbcb70149	-0.02233948
145	0x3d35e9ef	0.04441255
146	0xbdbe24c6	-0.09284358
147	0xbdf758ad	-0.120774604
148	0x3e3e2e66	0.18572387
149	0xbde0bf06	-0.10973935
150	0x3e06c529	0.13161148
151	0x3e1d20d4	0.15344554
152	0xbe270dcc	-0.16313857
153	0x3c9757fa	0.018474568
154	0x3e09fec4	0.13476092
155	0x3b9f0fa3	0.004854159
156	0x3d60a580	0.054845333
157	0x3de858e3	0.11345079
158	0x3dd75d77	0.10515874
159	0x3d38b494	0.045094088
160	0xbd9abe17	-0.07555788
161	0xbe056f18	-0.1303066
162	0x3e0e1fd3	0.13879327
163	0x3dca19be	0.09868191
164	0x3d95d4b3	0.0731596
165	0xbd3a9e6f	-0.04556125
166	0xbe3fa6b3	-0.18715934
167	0x3df2c8b9	0.11854691
168	0x3e148972	0.14505556
169	0xbde6c825	-0.11268643
170	0xbe4c7989	-0.19968237
171	0x3da2ecb6	0.07955305
172	0xbd20ae85	-0.039228935
173	0xbce032e8	-0.027368024
174	0xbe3bcba3	-0.183394
175	0xbe365dc4	-0.17809206
176	0xbd334e2c	-0.043775722
177	0xbdc44d8c	-0.095851034
178	0x3dfa6b34	0.122274786
179	0x3da28680	0.0793581
180	0x3d3cbdfb	0.046079617
181	0x3dd1407e	0.10217379
182	0x3d67aec4	0.056563154
183	0x3e28c8ad	0.16482802
184	0x3d9cae5b	0.07650443
185	0x3e1a40be	0.1506376
186	0x3e04996f	0.12949155
187	0xbe34d70d	-0.1766016
188	0x3de96223	0.11395671
189	0x3e18a360	0.14906073
190	0x3dec8509	0.11548812
191	0x3c5bc542	0.013413729
192	0xbdb1b80e	-0.08677684
193	0xbd938eb8	-0.07204956
194	0x3db70870	0.08937156
195	0x3d9c43c1	0.076301105
196	0x3d8cccca	0.06874998
197	0xbda196c2	-0.07890083
198	0x3c690a06	0.014223581
199	0xbc27d994	-0.010244746
200	0xbde9d47b	-0.114174806
201	0x3e255e94	0.1614936
202	0x3ce7bcd9	0.028288292
203	0x3defe050	0.11712706
204	0xbda9de57	-0.08294361
205	0x3c737d3b	0.0148614
206	0xbe49c2bd	-0.19703193
207	0x3d4c67e3	0.04990376
208	0x3de23551	0.110453255
209	0x3d54c54f	0.05194598
210	0xbd192b9d	-0.03739511
211	0x3da28cd3	0.07937016
212	0x3c0f4db8	0.008746557
213	0x3e28cf06	0.16485223
214	0x3c936c26	0.017995905
215	0xbe3c3047	-0.18377791
216	0x3e2ddd4b	0.16978948
217	0x3dc1135d	0.094275214
218	0xbc8d684f	-0.017261652
219	0x3d8fb490	0.070168614
220	0x3e12baa4	0.1432901
221	0xbded99db	-0.11601611
222	0xbd339108	-0.043839484
223	0x3e35d753	0.17757921
224	0xbe01c8af	-0.12674211
225	0xbe368ef3	-0.17827968
226	0x3e0389bc	0.1284551
227	0x3c539a34	0.012915183
228	0xbe0e7136	-0.13910374
229	0xbe28598e	-0.16440412
230	0x3de60c15	0.11232773
231	0x3d8a5ecd	0.06756363
232	0x3e29504a	0.16534534
233	0x3cf753a1	0.030191245
234	0xbe0c044a	-0.13673511
235	0x3d2c1bf3	0.042018842
236	0xbe50e97b	-0.20401566
237	0x3d812b5a	0.06307097
238	0x3db5f6dd	0.08884976
239	0x3d91fe6f	0.071286075
240	0x3db5d936	0.0887932
241	0x3e381d27	0.1797987
242	0x3de49a70	0.11162269
243	0x3d7ebfb8	0.062194556
244	0x3d8c4855	0.06849734
245	0x3e246c8f	0.16057037
246	0x3d4f82ca	0.05066184
247	0x3dfc5491	0.12320817
248	0x3df9e04b	0.122009836
249	0xbd88ed9d	-0.06685946
250	0xbc8dd202	-0.017312054
251	0xbe0a2cc1	-0.13493635
252	0xbd876412	-0.06610884
253	0xbe2cc047	-0.16870223
254	0x3decb5fa	0.11558147
255	0x3df47c6d	0.11937795

functional_1/conv2d_1/Relu;functional_1/conv2d_1/BiasAdd;functional_1/conv2d_1/convolution;functional_1/conv2d_1/Squeeze f4 [16]
0	0x3cd02211	0.02540687
1	0xbd069d37	-0.032864776
2	0x3ced7a8b	0.028989097
3	0x3d066cbd	0.032818545
4	0x3d14f5fa	0.036367394
5	0x3d409536	0.0470173
6	0x3c97aa1f	0.018513737
7	0x3cc12780	0.023578405
8	0xbbb25775	-0.0054425546
9	0xbd0547f7	-0.032539334
10	0x3d179a29	0.037012253
11	0xbd328c55	-0.043590862
12	0x3d0dce69	0.034620676
13	0x3ccd8978	0.025089964
14	0x3c8e5123	0.017372673
15	0x3d129e46	0.035795473
